Sudoku.NeuralNetwork/9millions/model_save/model_epochs_3.pth (torch, 20098 bytes, 2 tensors)

l1.weight f4 [128, 27]
000000 1d 14 51 3e b4 17 d7 3d ac ce 3f 3e cc c9 17 bf
       0.20417829 0.10502568 0.18731183 -0.5929229
000010 8f c7 e6 3c 97 ad 88 3d c1 1f 49 3e 6e 66 14 bf
       0.028171329 0.06673735 0.1964102 -0.57968795
000020 e4 e4 c8 3d 49 9d 51 3e 2a 2f f5 3d 66 83 2c 3e
       0.098092824 0.20470156 0.119718865 0.16847
000030 c0 20 14 bf cb 90 13 3b 44 73 33 3e 2c 6d 01 3d
       -0.5786247 0.0022516723 0.17524439 0.031598255
000040 b6 96 0e bf 61 d7 9c 3d 0e 91 ee 3d 6a 76 ce bc
       -0.55698717 0.07658268 0.11648761 -0.025202949
000050 c0 ea ad 3d 7c 67 00 bf f5 d9 f3 bd 98 0e 42 3e
       0.08492041 -0.50157905 -0.119068064 0.1895088
000060 d9 95 5a 3e 8f 57 30 bf 54 5b fd 3d 95 7f 12 3e
       0.21346225 -0.68883604 0.12370935 0.14306481
000070 93 09 c3 3d af 47 ae 3d 5b 7e 24 3e 83 7d be 3b
       0.095233105 0.08509766 0.16063826 0.005813302
000080 7e 18 09 be 78 06 0b 3e 6c f7 2c 3e 8b 80 18 be
       -0.1338825 0.13576686 0.16891259 -0.14892785
000090 7f a2 14 3e 74 df b3 3d 22 da d9 3d 4d a7 08 3e
       0.14515112 0.08782855 0.10637309 0.1334507
0000a0 e7 25 1e bc c0 21 80 be 4b f0 2d 3e ff b8 19 3e
       -0.009652591 -0.2502575 0.16986196 0.15011977
0000b0 45 2e 63 be f5 56 82 3d 3b d6 12 3e 31 15 96 3d
       -0.22185619 0.06364242 0.14339535 0.07328261
0000c0 9c c1 6c 3d d5 0a 9d 3e 2d 83 04 bf 2d 0b 95 3d
       0.057801828 0.30672327 -0.5176266 0.07277522
0000d0 b1 8e 80 3d 22 70 1d be ac 91 50 3e 11 99 28 3e
       0.06277216 -0.15374807 0.2036807 0.1646464
0000e0 ec 04 57 3e 31 58 31 3e a7 5a 15 3e 53 37 a8 3e
       0.20997971 0.17318799 0.14585362 0.3285471
0000f0 98 49 45 3e e1 d7 36 3e ae 36 5b 3e 61 82 c9 bd
       0.19266355 0.17855789 0.21407577 -0.09839321
000100 e8 2e 84 bc 65 02 ce bc e5 68 e1 bc 6b ac 9b bd
       -0.016135648 -0.025147626 -0.027515838 -0.076012455
000110 38 5e a1 3e 26 95 8c bd 45 46 60 bd 62 8d 66 bc
       0.31517196 -0.06864385 -0.054754514 -0.014071794
000120 2e 3d 3b be 36 b7 27 bd b8 9e 9c bd 51 d4 24 be
       -0.18285057 -0.040946208 -0.07647461 -0.16096617
000130 81 99 ed 3c f7 d4 21 3e 7d 61 53 be 11 6a d7 bd
       0.02900386 0.15803896 -0.20642658 -0.105182774
000140 14 ac 1c be b2 bc 2a 3e 01 40 cc 3d a8 2f 8f 3e
       -0.15300018 0.16673544 0.09973145 0.27966046
000150 55 08 84 be ba a3 63 3d d2 fc df 3d c9 3d a5 3d
       -0.25787607 0.055576064 0.109368935 0.08068425
000160 5b cc 94 3e 52 5e 9c 3d 26 f2 42 3e 3c 7a 05 3e
       0.2906216 0.07635178 0.19037685 0.1303491
000170 2b b6 6c 3e 77 26 8f be 76 29 05 3d c2 c0 22 3e
       0.23116367 -0.27959034 0.032510243 0.15893844
000180 a1 d3 06 3d 74 26 8d 3e 4e 5a 0e 3d d1 68 2e 3e
       0.03291667 0.275684 0.03475409 0.17032172
000190 8d 2e ee 3c ee e3 3b 3e 59 a7 70 be 9e c9 5f bf
       0.029074932 0.18348667 -0.23501338 -0.8741702
0001a0 f1 d2 44 3e d8 b6 1b bc 04 a1 3a 3e f2 df 13 3e
       0.19221093 -0.009504043 0.18225485 0.14440897
0001b0 0c 9d 01 bd 91 d7 c6 bc 25 26 d2 3e 35 3b 06 bd
       -0.031643912 -0.024272712 0.41044727 -0.032771308
0001c0 ac be 07 3c 22 74 65 bd 94 3e fa 3b 81 cd f0 3e
       0.008285206 -0.056018956 0.0076368544 0.47031787
0001d0 aa 58 a6 3d a3 9d 87 bb 3f d2 c8 bc 1b f5 e4 3e
       0.0812238 -0.004138665 -0.024514316 0.4471825
0001e0 c7 24 5e bb bf 06 de 3c 62 21 5f bd 65 d2 4a 3b
       -0.0033896433 0.027102826 -0.054475196 0.0030948159
0001f0 b1 95 05 3f 71 b4 cc 3d 5b d6 e2 bc f8 b0 d9 be
       0.52181536 0.09995354 -0.027690103 -0.4251783
000200 78 5f da 3e 50 8c 21 bc ad 74 b4 bc 49 1a 28 bd
       0.42650962 -0.009860113 -0.022028292 -0.041040692
000210 f6 25 a9 3c 6b 52 e6 3e ae 78 71 3d 2c 4c fa bd
       0.020647984 0.44984755 0.05895298 -0.1222156
000220 45 dd 7e be c3 f7 dd be 90 5d 56 be b6 7f a9 be
       -0.24889095 -0.4335309 -0.20934129 -0.33105248
000230 de 5e e1 bd 3e 64 ce be 95 96 4f be 60 3f 3e be
       -0.110044226 -0.40310854 -0.20272286 -0.18578863
000240 8a 9c 58 3f db 80 68 3d 1b 1f 35 3d 9f ec c3 3d
       0.8461386 0.05676351 0.044219118 0.09566616
000250 ec 32 76 3c 5c 6a 4c bb c1 e8 4f bd a8 b7 3a 3e
       0.015026789 -0.0031191325 -0.05075908 0.18234122
000260 c0 58 c6 bc be 94 1e 3f 67 8d 61 3d d6 d1 15 bd
       -0.024212241 0.6194571 0.055066492 -0.03657707
000270 85 41 af bc 0f 15 d0 bd d2 7d 51 bd 75 57 47 bd
       -0.021393547 -0.101602666 -0.051145382 -0.04866739
000280 2b 59 98 3c 80 30 f0 bc 72 d1 3c bc af 99 c5 3d
       0.018597206 -0.029320002 -0.011524545 0.096484534
000290 82 b9 df 3d 88 61 e2 bd 26 8c 9b 3d f3 3f 7b 3d
       0.10924055 -0.11053759 0.075950906 0.061340284
0002a0 09 b2 38 3e cd e7 0c be 57 a7 25 bd f0 5b 5b bd
       0.18036665 -0.137603 -0.04044279 -0.053554475
0002b0 ad e8 16 3e 86 2d 1c 3e 41 37 e9 bd 7b fd c6 3d
       0.14737196 0.15251741 -0.11387492 0.09716316
0002c0 4e c0 32 3e 00 3f db 3d 5b df d6 bd 8d 5d bf bc
       0.17456171 0.10705376 -0.104918204 -0.023360038
0002d0 f9 78 f7 bd a0 97 83 3e 7c 92 b8 3c 20 44 8c be
       -0.120836206 0.25701618 0.022530787 -0.27395725
0002e0 f7 25 78 3e 0f 20 83 3d 03 a4 b8 3d 6a 57 50 be
       0.24233232 0.06402599 0.09015658 -0.20345846
0002f0 9e fa e2 bc 8c 61 3f 3e 0e f2 15 3e b9 37 f2 3d
       -0.027707394 0.18689555 0.14643118 0.118270345
000300 fe bf e6 3d 74 47 0a 3e 89 0c 38 3d b3 c0 94 3e
       0.11267088 0.1350382 0.04493383 0.29053268
000310 a9 e6 d5 3d 8b 04 46 c0 0a be 22 3e 87 a3 d9 3d
       0.104443856 -3.0940273 0.15892807 0.106268935
000320 44 cf 9e 3d 17 7a 9c 3d 75 26 b1 3d e8 c4 42 3e
       0.077543765 0.07640474 0.08649913 0.19020426
000330 f7 67 df bb f7 9f 8c 3d 6d 23 4b c0 3b 14 88 3e
       -0.0068178135 0.068664484 -3.1740372 0.26577935
000340 00 18 08 be f2 0e 96 3b af aa 63 3d bb cc 27 bc
       -0.13290405 0.0045794183 0.0555827 -0.010241683
000350 e2 0f c3 3e 01 63 bf 3e d4 be cd 3c a8 08 36 c0
       0.38098055 0.3738022 0.025115408 -2.8442783
000360 ef 30 ba bc f1 d2 2a bd a3 9e 62 bd 38 3e 65 bd
       -0.022728411 -0.041705076 -0.05532707 -0.05596754
000370 e9 c3 51 bd 38 36 95 3c 0b bd 59 bd ee ea 8d bd
       -0.051212225 0.01821433 -0.0531588 -0.06929575
000380 9e c7 6f bd 0f d8 4e 3c 31 31 81 3c e4 90 d3 3c
       -0.05853998 0.012624755 0.015770527 0.025825925
000390 69 12 8f 3d 6e c5 4f 3d 91 29 bc 3f 44 34 14 be
       0.06985933 0.050725393 1.4700185 -0.14473063
0003a0 17 dd 66 3c a9 6a 3a bd 86 cd 3b be 84 ef 05 be
       0.014090798 -0.045511875 -0.1834012 -0.13079649
0003b0 55 c9 42 be f7 f4 44 be 07 53 1c be ef e2 93 be
       -0.19022115 -0.19234072 -0.15266047 -0.28884074
0003c0 db b3 0d be bb 8f 31 be 0d 8a 38 be 7b f9 ab 3d
       -0.1383814 -0.17339985 -0.18021412 0.08397194
0003d0 9a 3e e4 3d e7 9f ca 3d 37 3d 2b 3d 1f e1 f0 3d
       0.11144753 0.0989378 0.041806426 0.117616884
0003e0 ab 89 a1 bd eb 03 2f c0 4b e8 dc 3d d5 c0 a1 3e
       -0.07887586 -2.7346141 0.10786494 0.31592432
0003f0 97 8b e7 3c 1b 33 90 3d cf 75 72 3d b0 2a 0f 3c
       0.028264804 0.070409976 0.059194382 0.008738205

l2.weight f4 [9, 128]
000000 69 e7 3a be dc c3 ac bc f8 08 1f 3d d8 ca 1a be
       -0.18252338 -0.021089487 0.038826913 -0.15116441
000010 38 4c a0 3d 4b 58 b0 bf 4a a0 93 3d 53 d3 07 bf
       0.078270376 -1.3776945 0.07208307 -0.5305683
000020 c0 db f2 3d 67 e8 ca be d7 6f d8 bd 60 fd a2 3d
       0.1185832 -0.39630434 -0.10568207 0.07958484
000030 e1 3b b8 3d b2 ab 22 3d be eb 65 3b 8c b1 2d 3e
       0.08995796 0.039714523 0.003508314 0.1696226
000040 b6 81 c1 bd 5f 55 20 3e fc e5 47 be c1 47 fa 3d
       -0.094485685 0.15657566 -0.19521326 0.12220717
000050 85 fb 9a 3c 69 15 5b 3d e0 39 80 bf 1d fd 86 be
       0.018918762 0.053487215 -1.0017662 -0.26364985
000060 31 53 97 bd 37 fc 04 bc ec ce 09 3d cd 40 35 bd
       -0.073889144 -0.008116773 0.0336446 -0.044251252
000070 d9 cd 3d 3e 43 8d bc be 91 3b d3 be b9 56 31 3e
       0.18535556 -0.36826524 -0.41256383 0.17318238
000080 67 3c 31 3d 99 5f fb 3c 03 57 9e 3d 6a 26 aa 3d
       0.043270495 0.030685233 0.0773144 0.08308108
000090 3b e3 06 bf 3f 1e 80 3e fd 1c 2b 3e 37 34 73 be
       -0.52690476 0.25023076 0.16710277 -0.23750387
0000a0 ca bc b5 ba 4d bf 33 bd 6d fc 38 be bf be 0a 3e
       -0.0013865468 -0.04388361 -0.18065043 0.13549326
0000b0 ef 08 26 3e 5b 2c 1d 3d f2 e7 08 3e 9b 4f d3 3c
       0.16214345 0.03837238 0.1336973 0.025794795
0000c0 7b b0 99 3d 41 ea 1e be ea e8 a2 3d 0a af 3b bc
       0.07504364 -0.15519048 0.07954581 -0.011455307
0000d0 d2 a1 eb 3e 21 4e 51 3d 3a 41 72 bd 88 1e 37 3d
       0.46021897 0.0510999 -0.059144236 0.04470685
0000e0 ff 9e 5b bc d8 7b e7 bd 63 8b 19 3e 29 f3 37 3b
       -0.013404607 -0.11302918 0.14994578 0.0028068519
0000f0 84 d0 aa bd 66 11 35 bd 5d c2 8b bc 17 f0 45 3d
       -0.083405524 -0.044206046 -0.017060453 0.04832467
000100 15 0a 93 3d 17 fb e6 be 8c 85 57 bd 3e 38 ac 3e
       0.07179657 -0.4511344 -0.052617595 0.3363666
000110 bb 72 1b be b2 dd 76 3d dd 65 c7 bd 01 bc a3 bd
       -0.15180485 0.06027002 -0.09736226 -0.07994843
000120 8b 54 c7 bc c3 af 13 be 44 6b 1c be c8 10 a9 be
       -0.024332305 -0.14422517 -0.15275294 -0.33020616
000130 95 57 71 bd 15 d6 03 3e 6d e6 32 bd 97 52 7f 3e
       -0.058921415 0.12874635 -0.043676782 0.2493385
000140 8a 51 13 be 5d 30 5f be 23 44 26 be 7d 1c 6c be
       -0.14386573 -0.21795793 -0.1623693 -0.23057742
000150 5b 3e c1 3d d4 45 2e 3e 6e e9 42 be a5 f0 cc bd
       0.094357215 0.17018825 -0.19034359 -0.10006837
000160 53 9b 29 3f d1 61 ea 3d 8b 13 e5 3c 56 a6 9b bd
       0.6625263 0.11444438 0.02796342 -0.076000854
000170 08 ef bb 3d 5f f5 6e be db 5a a2 bc 60 d7 72 be
       0.09176451 -0.23335789 -0.019818714 -0.23714972
000180 78 ff 20 3e 26 c2 5e 3e 00 8b 9b 3d 19 e1 7d be
       0.15722454 0.21753749 0.075948715 -0.24792899
000190 d0 30 6d 3e 15 d1 45 be ec 4b c2 bd 55 dc 10 3e
       0.23163152 -0.1931804 -0.09487137 0.1414655
0001a0 73 d2 9d be 5d 1b b4 be d5 ac 35 bd 6c 28 1b be
       -0.30824623 -0.35177127 -0.04435428 -0.15152138
0001b0 f6 dd fa 3b 4d ac d8 3d 02 21 1a 3e f6 43 5d 3d
       0.0076558543 0.10579739 0.15051654 0.05401989
0001c0 c2 a0 d8 bd d2 d7 b6 3d 04 07 5b 3f 88 af 53 3d
       -0.10577537 0.08927883 0.8555758 0.05168107
0001d0 f0 64 85 bd f1 26 44 3e 18 c8 02 be d2 02 35 be
       -0.06513393 0.1915548 -0.12771642 -0.17676857
0001e0 0d 78 9f be 48 65 a4 3e dc 45 25 3d 47 71 37 3e
       -0.3114628 0.3210852 0.040349826 0.17914306
0001f0 56 0b 22 3e 3e a4 15 bd 3c 8e 63 be 6a 48 fc bd
       0.15824637 -0.036533587 -0.22222227 -0.123184994
000200 c6 0b 00 3a 69 5f 27 be 50 b7 27 3d d8 2b 28 be
       0.0004884567 -0.1634499 0.040946305 -0.16422975
000210 5f 44 a7 3e e5 1b f6 3d b7 83 0a bd a3 22 52 be
       0.3266935 0.12017039 -0.03381702 -0.20521025
000220 bf 63 91 3e 79 eb de bd 19 89 5e 3e 33 2b 8a bd
       0.28396413 -0.108847566 0.21731986 -0.06746521
000230 f9 8c 19 be 35 9d 2a be 43 26 b7 bd 98 99 54 3e
       -0.14995183 -0.16661532 -0.08942845 0.20761716
000240 05 60 32 3d ce 30 93 3e f6 2f 0e 3e fb e1 7d be
       0.043548603 0.28748173 0.13885483 -0.24793236
000250 2b b5 e1 bd d9 8a 69 3e a4 71 21 3e 0f ee 31 bd
       -0.11020883 0.22806872 0.15766007 -0.04343992
000260 a0 22 58 3e d9 c4 94 bd 25 45 85 bd 8d 71 97 3e
       0.21106958 -0.07264108 -0.06507329 0.2957882
000270 2c 2e 94 bc 0d da b2 bc 99 c3 30 be e8 4b 72 be
       -0.018088423 -0.02183249 -0.17262115 -0.23661768
000280 0d 5f 6f 3e a9 a8 d8 bd 61 8d 2f be 66 18 bc bd
       0.23376103 -0.10579044 -0.17143776 -0.09184341
000290 70 bf 18 3e 3f 33 ef bc 34 4d 52 3e 03 ed d9 3e
       0.14916778 -0.02919924 0.20537263 0.42563638
0002a0 f2 80 12 3e f2 ce 2e bd bf 2f ba 3e 93 da bb bb
       0.14307001 -0.042677827 0.36364552 -0.005732843
0002b0 cb db 72 3e fe f5 2c be 86 55 82 3e 95 da cb 3d
       0.23716657 -0.16890714 0.25455874 0.099538006
0002c0 ba c5 fd 3d d3 4c 18 3e 65 8b e3 3c fe 18 1b 3e
       0.12391229 0.14873056 0.02777643 0.15146253
0002d0 c1 45 fe 3d ac 4e 22 bd f8 d4 49 3e c0 07 9f bd
       0.12415648 -0.03962581 0.19710147 -0.0776515
0002e0 5d b9 a6 bb 03 d1 21 3d af 3a 28 c0 a5 33 16 be
       -0.005088015 0.03950597 -2.6285818 -0.14668138
0002f0 ea 02 a4 3e 69 4a d4 bd ce ed 28 bc 13 1e 67 bb
       0.32033473 -0.10365755 -0.010310603 -0.0035265728
000300 25 41 9c 3d 7c ce a4 3d af 05 e7 3d f6 ef 00 be
       0.07629613 0.08047196 0.11280381 -0.12591538
000310 cb 3f dd 3d 0a b9 00 3d cb b0 cd 3d 55 65 2b be
       0.10803183 0.031426467 0.10043486 -0.16737874
000320 94 42 cd 3d c5 35 6d be 68 cd fa 3c 92 37 c7 bd
       0.100224644 -0.23165043 0.030615523 -0.09727396
000330 e9 75 ad 3d 23 34 91 c0 d4 39 b9 3d 34 6f 5f 3e
       0.08469755 -4.5376143 0.09044233 0.21819764
000340 fb 01 5b be 60 28 01 3e ab 07 2c bd 95 a4 b2 3e
       -0.21387474 0.12613058 -0.0419995 0.3489119
000350 94 a2 a2 bc 38 ae 12 c0 e9 80 3c 3c 85 f2 6f 3e
       -0.019852914 -2.2918835 0.011505344 0.23432358
000360 04 3f 93 bd 5e 9c 88 bd af bb 00 3e 0f 2f 97 3b
       -0.07189754 -0.0667045 0.12571596 0.004613764
000370 4c de 5c bd b8 35 86 be aa 07 9d be b2 19 03 bd
       -0.053922936 -0.2621286 -0.3066991 -0.032006927
000380 3e c5 ab bd a7 9e 94 3e 79 52 6f bd 6d b2 b5 bc
       -0.0838723 0.29027292 -0.05842826 -0.022179807
000390 02 76 41 be fc 35 e1 3d 14 e2 90 3e d6 32 1e 3e
       -0.18892673 0.10996625 0.28297484 0.1544908
0003a0 06 00 13 3e 6a 3a 6b bc 5d 06 74 bd 8f a8 19 3f
       0.14355478 -0.014357189 -0.05957638 0.60022825
0003b0 01 0e 4f bd c5 5b 5b 3e 38 b2 dc bd a6 91 f4 3d
       -0.050550465 0.21421726 -0.1077618 0.11941843
0003c0 05 e9 47 be 8c ae 48 bd f3 c7 2f be f6 b7 8f bc
       -0.19522484 -0.048994586 -0.17166118 -0.017543774
0003d0 18 1c 27 3e 9f 25 a2 bd cd 1c 02 3e 86 de f6 3d
       0.1631931 -0.07917332 0.12706299 0.12054162
0003e0 dc 67 4f bc 01 7f c9 3e 9e ef b5 bc 87 4e 26 3e
       -0.012659039 0.3935471 -0.022208985 0.16240893
0003f0 04 c7 29 be 16 9c da bd da e9 ea bc 86 4a 24 be
       -0.16579825 -0.10674302 -0.028675962 -0.16044053
