Sudoku.NeuralNetwork/9millions/model_save/model_epoch_3.pth (torch, 20092 bytes, 2 tensors)

l1.weight f4 [128, 27]
000000 52 e0 56 3e 3b af 4f be 6c ab b9 3e 20 0b 14 3e
       0.20984009 -0.20281689 0.36263597 0.14457369
000010 7c 50 11 3e 21 70 c6 3d 71 ae 02 be 95 70 e4 bd
       0.14190859 0.09689356 -0.12761857 -0.11154286
000020 54 0f aa 3e 9e 8c 77 3d cf d9 cf ba 08 a7 8a 3e
       0.3321482 0.060436837 -0.0015857759 0.2708056
000030 a2 1b 5b 3e b2 be 0d 3e a3 6f 7a 3e b4 36 55 be
       0.2139726 0.13842276 0.24456649 -0.20821649
000040 e3 57 d7 bd 4f 9c 9b 3e 17 7a 1a bd 2e 3a 55 be
       -0.1051481 0.30392691 -0.03771409 -0.20822975
000050 71 f2 f0 3d a7 84 8b 3e 89 1e 0f 3e 9d 27 66 3e
       0.11764992 0.27249643 0.13976492 0.22476049
000060 72 67 92 bd 75 1e 5b be 6e b3 27 3e a7 a2 4b 3c
       -0.07148637 -0.21398337 0.1637704 0.012428916
000070 ba af 54 3e 85 eb 91 3e 2b 60 33 3e 01 8e e5 bd
       0.2077016 0.285 0.17517154 -0.11208726
000080 fe 59 6f 3e 6d 81 5e be 07 dc 3a 3c 08 f3 91 3e
       0.23374173 -0.2172906 0.011404998 0.2850573
000090 da 1d 7a 3d 89 5f a4 3e 0f 4d 95 3e 62 40 92 3e
       0.061063625 0.32104138 0.29160354 0.28564745
0000a0 d8 1a 82 be 94 d2 77 3e ee 12 cb be 6c eb 12 bc
       -0.25411105 0.24201423 -0.3966288 -0.008967262
0000b0 33 81 90 3e 5e 3c 25 3e 30 be 81 3e b7 10 8d 3e
       0.2822357 0.1613631 0.25340414 0.27551815
0000c0 cb 44 56 3e 42 0d 25 be 1f 06 a6 3e 77 68 c0 be
       0.2092468 -0.16118339 0.32426545 -0.375797
0000d0 ba 35 b7 be 93 3b 3d 3e 5c 26 9c 3d a9 cb 60 3e
       -0.35783178 0.18479757 0.07624504 0.2195269
0000e0 f2 25 40 be da 7d 6a bc 5b 43 1e 3e d3 71 92 3e
       -0.18764475 -0.014312232 0.15455382 0.28602466
0000f0 a3 ea 67 bd 36 f3 c8 3c 7f 74 91 3e d4 5e b6 bd
       -0.05662025 0.024530035 0.28409192 -0.08904806
000100 58 5a 0e 3e c0 c4 bc bd 45 e7 66 3d 28 74 6b 3e
       0.13901651 -0.092172146 0.0563729 0.22993529
000110 62 ad 4c 3e 17 cf a6 bd b0 54 00 3d 3a 86 41 3e
       0.19988015 -0.08144968 0.031330764 0.1889886
000120 e7 46 85 bd 6c ea 29 3e 89 a5 4a bd 25 f5 bf bb
       -0.06507664 0.16593331 -0.049474273 -0.005858081
000130 e2 3f 2f 3e 0f 96 5a 3e f2 da d0 bd 37 6e 86 be
       0.17114213 0.21346305 -0.101980105 -0.26255962
000140 1b 98 72 3e bc 9c f4 3d 61 5f 91 be 9b f2 10 be
       0.23690836 0.11943957 -0.2839308 -0.14155047
000150 62 16 fb 3d 7c df ae be c3 31 38 3e 13 42 55 3e
       0.122601286 -0.3415488 0.17987733 0.20825987
000160 d8 cd 31 3e c1 c3 35 3e b0 f9 c8 3c 67 de 7c be
       0.1736368 0.17750455 0.024533123 -0.24694215
000170 d7 8f 39 be c5 bb 0d 3e 24 47 b6 bd af d7 1a 3e
       -0.18121277 0.1384116 -0.08900288 0.1512134
000180 23 a9 98 3e db 40 99 3c 95 88 61 3e c9 5c 55 3e
       0.2981654 0.018707683 0.22024758 0.20836176
000190 3b 72 7c be 42 6e 91 bd 84 54 6d 3e 94 23 77 be
       -0.2465295 -0.07101108 0.23176771 -0.24134666
0001a0 85 35 f8 3d 63 ee cb 3d 09 d7 84 3e c9 e3 fe 3d
       0.12119583 0.09957578 0.2594531 0.1244579
0001b0 26 6c 32 bd e0 cf bb bd a1 c2 9a 3e 0a f3 b7 3e
       -0.04356017 -0.091705084 0.30226615 0.35927612
0001c0 f7 59 c8 bd 40 4c 5b be 71 66 06 3f cb 00 1f bc
       -0.097827844 -0.21415806 0.52500063 -0.009704779
0001d0 d2 c7 13 be 05 d8 24 bd e6 de 1e bd d9 a1 9f 3e
       -0.14431694 -0.040245075 -0.03878679 0.31178167
0001e0 cf c8 af 3e f5 77 c0 bd 30 33 58 be b4 26 fe 3e
       0.34332892 -0.0939788 -0.21113276 0.49638903
0001f0 4e 38 c5 bc 4e 8b 07 be f3 4e 35 bd 9b a3 78 3c
       -0.0240747 -0.13236734 -0.044264745 0.015175725
000200 fc 0b 1c 3e f2 51 41 3e 9e 01 b1 bd df eb ff bd
       0.15238947 0.18878916 -0.086428866 -0.12496161
000210 25 6a f3 3e 97 6c c3 3d 89 6e a3 bc ee 05 42 be
       0.4754192 0.09542196 -0.019950168 -0.18947574
000220 40 f0 02 be 50 ff 0b be 1b d1 00 be e5 59 02 be
       -0.1278696 -0.13671613 -0.12579767 -0.12729605
000230 03 fe 0f be 88 bf a9 bd d1 6c d3 bd 83 9e 00 be
       -0.14061742 -0.08288485 -0.103234895 -0.12560467
000240 36 e2 ee 3f 5f d5 6e bd 81 56 96 bd 06 23 59 bd
       1.8662784 -0.058308955 -0.07340718 -0.053011917
000250 af 0c 90 bd 52 d9 57 bd fd 6e 2e bd 4a e1 9b bd
       -0.07033669 -0.052697487 -0.042586315 -0.0761133
000260 b5 a9 92 bd 15 93 6e bd 76 0f de bd 52 9e bb bd
       -0.07161275 -0.058245737 -0.10842793 -0.091610566
000270 59 b6 de bd 1a ae b1 bd e2 ce cd bd b0 c7 6b be
       -0.10874624 -0.08675785 -0.100492254 -0.23025393
000280 8e 77 03 be 67 30 c4 bd 12 28 0f 3e 50 f3 11 be
       -0.12838575 -0.095795445 0.1398013 -0.14252973
000290 f1 05 87 3e f4 5e 84 bd ce 04 85 3e 08 d5 4c be
       0.2637172 -0.06463423 0.25980228 -0.2000314
0002a0 05 d0 3d 3e 6c af 9d bc d1 73 76 3e 77 ce ad bb
       0.18536384 -0.019248687 0.24067618 -0.0053041535
0002b0 8e 5b 9e bd 17 20 01 3e f4 b7 04 38 59 51 29 3e
       -0.077323064 0.12609898 3.1642572e-05 0.16534938
0002c0 23 d6 15 be d7 04 96 3e 0b 9e 10 3e 48 17 49 3e
       -0.14632468 0.29300568 0.14122789 0.19637787
0002d0 bd 6c c1 3d a5 66 ef bd eb de 82 3e 99 b2 35 bd
       0.09444568 -0.116895 0.25560698 -0.044359777
0002e0 64 c6 5e 3e e9 96 28 be 8c c6 43 3e c0 57 b8 be
       0.21755368 -0.16463818 0.19118708 -0.36004448
0002f0 00 3d 7b 3e ab c1 59 3e 6f 09 88 be e0 1f 1a 3e
       0.24534988 0.21265285 -0.26569697 0.15051222
000300 29 96 30 3e 58 a4 91 3e 39 3e 11 3e 13 58 5b 3e
       0.17244782 0.28445697 0.14183892 0.21420316
000310 b8 66 4d 3e a0 5f 7d be 00 49 1f 3e 97 85 a6 be
       0.20058715 -0.2474351 0.15555191 -0.32523796
000320 9f 24 78 3e 8e 9c 1f 3e 77 65 33 3e ea 03 98 3e
       0.2423272 0.15587065 0.17519175 0.29690486
000330 6f 04 27 3e ec a8 a9 3d 41 5b 7d be 5e 4d a1 3d
       0.16310285 0.082841724 -0.24741842 0.07876085
000340 2b 1b a0 bd b2 0b 7e 3e 26 f8 18 3e d4 c7 61 3e
       -0.07817682 0.24809149 0.14938411 0.22048885
000350 57 55 8b 3e 54 8e 80 3e 99 8f cf be 4f c8 d0 bd
       0.27213547 0.25108588 -0.40539244 -0.10194456
000360 be 7e 11 3e 3c 32 e0 bc 5d 8b 8a 3e 7b dc 94 3e
       0.14208505 -0.027367704 0.2705945 0.29074463
000370 51 14 b2 bc 03 47 f0 bd 3c d6 a0 be 89 26 6b 3e
       -0.021738203 -0.117322944 -0.31413448 0.22963919
000380 6e db 8a 3e 3d f5 d3 3d e3 c4 6b bd 4e 39 17 3e
       0.27120537 0.1034951 -0.057560813 0.14767954
000390 37 80 3d 3e a9 be 9e bd 0c cd 68 bd e1 83 c4 be
       0.18505941 -0.07751209 -0.056836173 -0.38381866
0003a0 c8 ac 86 3e 49 e0 4d 3e 6f f5 43 3d 26 37 9d 3d
       0.26303697 0.20105089 0.047841486 0.07676534
0003b0 80 db a2 3e 53 4a 82 3e 2f c7 00 3c 37 ed 15 be
       0.3180809 0.2544733 0.007859989 -0.14641272
0003c0 fe 6c 99 bd c7 7e 09 3e 62 10 87 3e cc 09 2b 3e
       -0.07491492 0.13427268 0.26379687 0.16702956
0003d0 cd b1 00 be ab e9 ac bc 9d b1 85 3e 91 eb 40 be
       -0.12567826 -0.021107515 0.2611207 -0.18839861
0003e0 b3 68 a3 3e f4 10 9c 3c 04 c3 ec 3d 2a b6 74 3e
       0.31915817 0.019051053 0.11560634 0.23897615
0003f0 58 f5 b2 3d 0f 79 6f be 21 5e b6 bd 88 1f 69 3e
       0.08738202 -0.23386024 -0.089046724 0.22765934

l2.weight f4 [9, 128]
000000 b2 c3 92 3d 80 0e fb bd f5 ff c9 3d 69 db e2 bd
       0.07166232 -0.12258625 0.09863273 -0.110770054
000010 3d b8 26 be 84 53 43 c0 05 db df bd 56 01 9c bd
       -0.16281219 -3.0519724 -0.109304465 -0.07617442
000020 e5 52 1b be 9b b4 b9 3d 26 f8 2a 3e 79 0b a2 bd
       -0.1516834 0.09067651 0.16696224 -0.079123445
000030 64 22 64 3e af 5a f5 bc b9 2d 21 be f8 2e 8b be
       0.22278744 -0.029950468 -0.15740098 -0.27184272
000040 7a d8 3a be 5f 45 31 3e 32 32 47 3d 41 9d 0b 3e
       -0.18246642 0.17311619 0.048631854 0.13634206
000050 2d d4 4e bc af 03 b3 3f 2e 85 65 bd 5d f1 74 bd
       -0.012623829 1.3985499 -0.056035213 -0.059800494
000060 6e 89 f1 bd bb 0c aa 3d 0d ec 96 3d 48 56 8f bd
       -0.11793791 0.083032094 0.07369242 -0.06998879
000070 39 6c 1c be d1 ec 4f 3d c8 75 15 bd 17 9b 31 3e
       -0.15275659 0.050762955 -0.036489278 0.17344318
000080 9d 90 fd 3d 5c b6 0f be b6 39 63 bd 8a 3c c2 3d
       0.123810984 -0.14034408 -0.05547496 0.09484203
000090 5a 59 07 bd b6 5f 15 be 50 b2 fb 3c c1 1e 37 bd
       -0.033044197 -0.14587292 0.030724674 -0.044707064
0000a0 05 60 ed bc 52 05 c6 bd b9 23 83 bd 00 3f dd bd
       -0.02897645 -0.096689835 -0.06403298 -0.10803032
0000b0 4a ec 5e 3d 1c 28 16 3e f5 38 e4 3d 93 03 14 3e
       0.05442456 0.14663738 0.11143676 0.14454488
0000c0 5f e3 02 3e b8 29 c6 bd ca 7c 0a 3e 5d 93 d8 bd
       0.12782048 -0.09675926 0.13524166 -0.10574982
0000d0 33 86 ff bb 8f 75 44 3d 1d 36 37 3e ef ad 0e be
       -0.00779798 0.047963675 0.17891736 -0.13933538
0000e0 54 ab 2e 3d ff a4 c2 bc 6d 66 14 3e ee 86 b3 bd
       0.04264386 -0.023760317 0.14492197 -0.0876597
0000f0 46 0a 07 bc 19 33 ce bd e3 39 01 3e ec 46 f6 3b
       -0.0082421955 -0.1006834 0.12619738 0.0075157788
000100 e1 8f 0a 3e 76 92 90 bd b2 4a 3e 3c cd 7b 8e bd
       0.13531448 -0.07059185 0.011614488 -0.06957207
000110 db 95 85 bd 64 5e c7 3e 27 48 ae bc 1d 85 ff bb
       -0.06522723 0.38939202 -0.02127464 -0.0077978508
000120 01 a8 db bd a9 c9 a5 3d 7a d6 f7 3d ce 42 34 3e
       -0.107254036 0.08095104 0.12101455 0.17603609
000130 d4 6a 8c 3d 14 82 db bd 81 f1 1b be 2f e1 07 3e
       0.06856313 -0.1071817 -0.15228845 0.13269494
000140 3d a3 f3 bc a9 c9 51 3d 3e 64 8d 3d ad f9 21 3e
       -0.029740924 0.05121771 0.06903885 0.158179
000150 51 75 92 bd ae ae 2a 3c 67 01 14 bd 18 55 a6 bd
       -0.071512826 0.010417623 -0.03613415 -0.08121699
000160 b4 1a fc 3d bc b1 f0 bd a2 1e 3a be 08 16 b3 ba
       0.12309781 -0.1175265 -0.18175748 -0.0013663182
000170 96 c3 ba 3c 4e 69 d5 3c 20 a3 2e 3d ad f2 10 3e
       0.02279834 0.02605119 0.042636037 0.14155073
000180 7c 51 9d bd 23 f0 cc 3d 15 44 08 be 5a c4 28 be
       -0.076815575 0.1000674 -0.13307221 -0.16481152
000190 05 e8 67 bc 46 f2 c3 3d 9d 71 09 be 6b 74 46 3d
       -0.014154439 0.09567694 -0.13422246 0.04845087
0001a0 0e 34 20 c0 46 a8 39 be ba 92 09 3e f9 de 59 3e
       -2.5031772 -0.18130597 0.13434878 0.21276464
0001b0 b8 c9 a6 bc f5 25 cf bd cb 61 03 3e 97 1c ef bd
       -0.020359859 -0.101146616 0.12830274 -0.11675375
0001c0 7c d4 c2 3d fd 1a e1 bd a8 f8 f6 bd c6 00 4f bd
       0.095131844 -0.10991476 -0.12059146 -0.050537847
0001d0 5e 83 01 3e 7c c2 4d 3e 1b d3 4c 3e 3e 22 18 3e
       0.12647769 0.20093721 0.20002405 0.14856812
0001e0 e8 0d 3d 3d fe 82 d0 bd f7 47 a5 bd c4 7c 85 be
       0.04615584 -0.10181235 -0.08070367 -0.2607175
0001f0 84 3c 59 3d 7f 32 32 be d0 5c 35 3d 75 52 b9 bd
       0.053036228 -0.17402075 0.044277966 -0.090489306
000200 14 69 41 3e 07 47 37 be ed 68 df bd 7e 11 7f 3e
       0.1888774 -0.17898189 -0.10908685 0.24909016
000210 c6 2f 3e bc 02 a0 79 3e 79 e8 55 3e 8e de 8c 3e
       -0.01160807 0.24377444 0.20889463 0.27513546
000220 bd 31 9f 3d d5 d3 48 3e 95 17 6f 3e cf 76 01 3d
       0.07773159 0.19612058 0.2334884 0.031607445
000230 36 12 df 3e 0c 8a 93 3d 18 30 c5 be 0a 40 c7 bd
       0.4356858 0.07204065 -0.38513255 -0.09729011
000240 8c 9a 59 3e 24 f2 8c 3b c7 a6 71 be 32 3b 12 be
       0.21250361 0.0043013263 -0.23598777 -0.14280394
000250 04 1d 2c bd 53 52 31 bf 41 ca 67 be d4 75 56 be
       -0.04201986 -0.6926624 -0.22635747 -0.20943385
000260 d0 a1 14 be bd 7c 94 3e fd ea dd 3c 5b c1 f8 3d
       -0.14514852 0.29001418 0.02708959 0.12146255
000270 85 87 db bd 2f cc 2d be f1 0d 55 be f8 bb 85 bd
       -0.10719208 -0.16972421 -0.208061 -0.06529993
000280 a7 ac de 3c 08 c3 03 be 99 e8 ba bc c3 11 db bd
       0.027181936 -0.12867367 -0.02281599 -0.10696747
000290 96 a9 f4 3d 5a b2 35 3e 44 0d 05 be ac 9c 12 be
       0.119464085 0.17743817 -0.12993342 -0.14317578
0002a0 ab ac 54 be c1 c6 4a 3e e1 c9 49 be bc 52 14 3e
       -0.20768993 0.19802381 -0.19705917 0.14484686
0002b0 1c ca 7b 3e e5 af aa bc 83 0c 26 3e 4b b1 5c 3e
       0.24588817 -0.020835826 0.1621571 0.21552007
0002c0 20 db 1b be 61 7f 6f be 73 ff 17 be 5a 80 45 be
       -0.15220308 -0.23388435 -0.1484354 -0.19287243
0002d0 b1 01 45 be 6f 64 67 be 9d ca 28 be 52 27 88 3e
       -0.19238926 -0.22596906 -0.16483541 0.265925
0002e0 44 1b 99 3e c1 45 22 be 68 32 11 be 55 7f 46 be
       0.29903615 -0.15846922 -0.14179385 -0.19384511
0002f0 67 3c 51 be 78 e8 ff 3d e9 59 25 be 43 04 a5 3d
       -0.20433198 0.12495512 -0.16147579 0.080574535
000300 fc d2 44 3d 30 28 8a be a5 e0 4e be 4e a7 7b be
       0.048052773 -0.26983786 -0.20202883 -0.2457554
000310 ae bd c8 3d 59 b3 d3 3e a1 c1 2d 3d 93 a3 0a be
       0.098018035 0.4134777 0.042420987 -0.13538961
000320 11 89 7a 3e 54 93 d9 3d d7 d3 3c bd db 15 5b be
       0.24466349 0.10623804 -0.046100464 -0.21395056
000330 2a 5d 85 3e d1 d2 31 be 59 78 de bd fe 31 44 be
       0.2604764 -0.17365576 -0.10862798 -0.19159696
000340 ec 54 fc bd 11 dd dd bd 9c 77 24 be 5e 16 22 3e
       -0.12320885 -0.10833181 -0.16061252 0.15828845
000350 4c b7 88 3e f4 58 73 be 88 f8 8b 3e 01 8e b8 bc
       0.26702344 -0.23764402 0.27338052 -0.02252865
000360 3b 6a 8e 3e 7e e0 c7 bd ef 7e 23 3e 66 38 b7 bd
       0.27815422 -0.09759615 0.1596639 -0.08946304
000370 1b 9c 33 be 09 98 57 be b4 3b 6d be 9b b1 25 3e
       -0.17540018 -0.2105409 -0.23167306 0.16181032
000380 79 d4 27 3d 2c 0a 4d 3d be b3 30 be 26 75 41 3e
       0.040974114 0.05005853 -0.17256066 0.18892345
000390 39 26 9b 3d 98 1e 12 3e 21 bc 34 3e f6 78 cc bd
       0.0757565 0.14269483 0.1764989 -0.09984009
0003a0 52 2b 8a 3e a3 0a 74 3e 29 40 80 be 69 4b 16 be
       0.26986176 0.23832183 -0.2504895 -0.14677204
0003b0 11 eb 8b 3e 07 d8 ce 3d 18 35 88 be d0 3f e1 bd
       0.2732778 0.10099798 -0.26603007 -0.109984994
0003c0 22 37 5b 3e ec b5 1d ba d7 a2 48 be 51 0c c9 bd
       0.2140775 -0.0006016183 -0.19593368 -0.09816802
0003d0 f0 9f 7b 3e 71 75 7c be 8f 4e 14 be 1a 7c 02 be
       0.2457273 -0.24654175 -0.14483093 -0.12742653
0003e0 3e 2a 29 be ad 0d e0 bd 5d 4f 62 bd 5b 99 91 3d
       -0.1652002 -0.109401084 -0.055251468 0.07109328
0003f0 1d 8b 10 3e 52 24 ec bd d9 53 a3 3e b8 43 0d be
       0.14115568 -0.11530365 0.31899908 -0.13795364
