Sudoku.NeuralNetwork/9millions/model_save/model_epochs_drop_3.pth (torch, 165352 bytes, 3 tensors)

l1.weight f4 [256, 27]
00000000: a2db 8dbf ba77 a53d 00ad d33c 1a42 5fbc
00000010: c609 723a a912 51bc 3581 a63d 0ddc 4e3d
00000020: 911b 003d 2ff0 86bf b9b0 463d c743 843d
00000030: 8257 a8bc 335f e73d 8610 3b3d bda4 623c
00000040: 2e52 8d3c ce1f 8e3d 1fdc 99bf f0cf b63d
00000050: e15c 973c 7787 773c dce7 3c3d 77ee eebb
00000060: d075 073d 27e4 853d 4200 2e3d 9412 27bc
00000070: 7a50 773d 1ae4 203d 5dda 723d efd9 563d
00000080: d0b7 13bc 6a2a a7bf 60a2 083d 6b64 cc3c
00000090: 4764 bebc 2b45 d2bc 43cf 183d db0c bd3c
000000a0: 8287 a23b 2946 61bc 02c2 9bbf 810c 2cbd
000000b0: 502d 973d abaf 393d 4da8 3e3d d84d d73c
000000c0: b9be 393c 67e6 e5ba c08c 8ebc b9ad 98bf
000000d0: 7a00 3bbd fdb5 3c3d 8d86 49bd 18f6 a0bf
000000e0: 9916 44bb c61b 3d3d dc58 873d 47d6 56bc
000000f0: 1ddc 603d 3aea 143d 9788 3f3d 16c8 a33d
00000100: a6ce a2bf 464d 913c 32e6 5a3d 397f b63d
00000110: bad5 c33c 0fdd ab3d 8458 483c d4b1 093d
00000120: 076e 90bb 7bc5 a3bf e12b b43d a105 763d
00000130: 7ef2 7d3d a766 4abd 5883 823c 3985 ab3b
00000140: 86ee 2c3d 3217 1c3e 74a4 8bbc 2dbd 93be
00000150: da5f 8e3d a2c0 a23d 56e2 aabe aede 883d
00000160: 9969 863e 6bed 5e3d 809a 6b3e 9bb4 853d
00000170: 1514 98be c870 363c 56d7 203d 354d 81be
00000180: d2ff 9b3d 7462 8a3e fd69 843b 984c 20bd
00000190: ab02 c63d 89bd 71be fb96 c4bb b812 e23d
000001a0: 9feb 8dbd d89d 7bbd 2520 99bd 1970 cfbc
000001b0: c2d9 92bb a693 443d db0c a03d 4fde 713d
000001c0: fd72 9d3d 9ee4 84bf faee 163d 1ba8 433d
000001d0: 0ee0 6d3d ee94 1ebc d5f9 c13d 46ad 613d
000001e0: b12c 273d b776 663d 8f39 9abf 8e4c 903d
000001f0: 5433 173d 3507 b33c 65d4 423c 6ba1 1d3d
00000200: 7d21 533d 0658 b23c 983f 893c d91f 9fbf
00000210: 25ee 7e3c 4082 993c 9f2e 483d e25c 02bc
00000220: 00ff 95be f1c5 8cbc 1d93 2bba 945b c1be
00000230: 5f7c debc bda5 923c 0ff4 763e 9cb9 5c3e
00000240: bf1e acbb 19f7 bfbe 2870 8fbd 0505 c4bd
00000250: ad00 9abe aa8d fa3c e800 293d 8a12 4c3e
00000260: 59fa 753e ae26 34bd cc83 52be 5b1b ce3d
00000270: 1e5e 8a3d 29eb 01be 5602 d43c c081 783d
00000280: c2d3 0a3d e2f9 143e d154 4b3b 7f56 ce3c
00000290: d552 7e3d d2a7 ef3c d7be fbbc fa0d 79bf
000002a0: 4ae2 edbb cce7 bd3d 1093 12bd 6904 653d
000002b0: b79f 44bc 6ecf 753c a8dd 4e3d bbf2 2b3d
000002c0: 0e25 81bf dbf1 a03c dd1e d43c c048 033d
000002d0: 389a a0bc 3445 1abc 3d11 edbc c879 673d
000002e0: ed1f fc3c d18d 9abf 572a bc3c 7ed1 c6bc
000002f0: 0c02 0a3d 080b be3d d294 343e b825 c53b
00000300: 28f2 033e 5484 1e3e 79b0 d63b d516 c9be
00000310: acf4 9fbe 1542 8f3c 5977 9d3c 8179 683e
00000320: 57c3 263d 5b30 d83d 8617 433e 86f9 c7bc
00000330: 1923 82be 3d2e 81be 5866 9a3d 01fa fb3b
00000340: 2f28 373c a187 363d 2291 19bd 490b 073e
00000350: 6f3f 0abd e8ce 3abe 5b0d 84be 92c3 073c
00000360: d4b5 8bbf 7378 cb3c 9f9d ddbb c897 7c3c
00000370: 8894 193d ddbc 14bd 2a11 a63d b051 613d
00000380: 23d6 513d bfe5 a2bf c8fd 3d3d 731c 433d
00000390: a6b5 163b 87e1 f93c a385 a8bb efde 593c
000003a0: 9689 943d 0158 8a3d 9057 a0bf 6796 8dbb
000003b0: 1e8e 323c 01a6 16bd c9d6 6f3d 3be4 013d
000003c0: c3a2 c2bc 4297 3e3d 168c 3a3c 5613 96bf
000003d0: a591 de3c a7fc bd3b 33af b63c 6bd2 bcbb
000003e0: f502 f13b cc83 2a3c 93d7 823d de92 d03c
000003f0: e689 94bf 2b45 5d3c 24d0 fe3c b220 603c
-1.1082652 0.08079477 0.025839329 -0.0136266 0.0009233024 -0.012760797 0.08130113 0.050502826
0.03127629 -1.0542048 0.04850838 0.0645824 -0.02054954 0.11297455 0.045670055 0.013833222
0.0172511 0.0693966 -1.2020301 0.0892638 0.018476905 0.015107981 0.046119556 -0.007291611
0.03307134 0.06537657 0.042480715 -0.0101973 0.060379483 0.039280035 0.05929028 0.05245393
-0.009015992 -1.3059819 0.033357978 0.024950227 -0.023241175 -0.025667747 0.037307035 0.023077419
0.0049600014 -0.013749638 -1.2168581 -0.042004112 0.073816895 0.045333546 0.046547223 0.026282236
0.011336976 -0.0017539979 -0.0174011 -1.1928016 -0.04565475 0.046071995 -0.049200583 -1.2575102
-0.0029920696 0.046169065 0.066087455 -0.013112611 0.054897416 0.03635619 0.04676112 0.07997148
-1.2719314 0.017737042 0.053442188 0.089109845 0.023905624 0.08391773 0.012228135 0.033616856
-0.0044076475 -1.2794641 0.08797432 0.060063962 0.061998837 -0.049414303 0.01593177 0.0052343872
0.04221966 0.15243223 -0.01704619 -0.28855267 0.06951876 0.07946898 -0.33375806 0.06683098
0.2625244 0.05442564 0.23008156 0.065285884 -0.2970282 0.011135288 0.03926786 -0.25254217
0.07617153 0.2702824 0.004040955 -0.039135545 0.096684776 -0.23607458 -0.0059994436 0.110387266
-0.06929707 -0.06142983 -0.07476834 -0.025322007 -0.004481525 0.04799237 0.07814952 0.0590499
0.07687948 -1.0382268 0.036849 0.04776774 0.058075003 -0.009679062 0.0947148 0.055096887
0.040814105 0.05626556 -1.2048815 0.07045852 0.036914185 0.021854023 0.011891459 0.03848402
0.05154561 0.021770488 0.016753957 -1.2431594 0.015559708 0.018738866 0.048872586 -0.007956715
-0.29296112 -0.01718423 -0.0006545054 -0.3776518 -0.027158914 0.017901296 0.24116538 0.2155518
-0.0052526887 -0.37493208 -0.07003814 -0.0957127 -0.3007864 0.030585129 0.04126063 0.19928947
0.24021281 -0.0439822 -0.20558089 0.100638114 0.06756233 -0.12687363 0.02588002 0.060670614
0.033893354 0.14548448 0.0031025896 0.025187729 0.062090714 0.029254828 -0.030730648 -0.9728695
-0.007259642 0.09272727 -0.03578478 0.05591241 -0.01200097 0.015003068 0.050504357 0.041979533
-1.0089433 0.019646576 0.025893623 0.0320518 -0.019604787 -0.009415913 -0.028938884 0.056512624
0.030776942 -1.2074529 0.022969408 -0.024269816 0.03369336 0.09279448 0.17634895 0.0060164593
0.12885344 0.15480167 0.006551799 -0.39275232 -0.31241357 0.017487565 0.019221948 0.227026
0.040713634 0.10556098 0.19051942 -0.024410974 -0.25417402 -0.2523059 0.07539052 0.007689715
0.011179014 0.04456294 -0.037491925 0.13187899 -0.0337519 -0.18242991 -0.2579144 0.008286374
-1.0914865 0.024837708 -0.0067631747 0.015417047 0.037495166 -0.036312927 0.081087425 0.055009544
0.051229607 -1.2726363 0.046384603 0.047634553 0.0022996454 0.030503048 -0.005142884 0.01329778
0.07252805 0.06755067 -1.2526722 -0.004320908 0.010898141 -0.036779407 0.058554444 0.0317118
-0.023759251 0.04653097 0.011385938 -1.1724651 0.027169058 0.005797941 0.022300338 -0.0057623885
0.007355089 0.010407399 0.06388774 0.025460657 -1.1604583 0.01350526 0.031105109 0.01367967

l2.weight f4 [128, 256]
00000000: 3101 b63d f02b 17bd 333c 62bf 6366 02bd
00000010: 5f2a 3cbf cb4f 01bc 710f 35bf b738 c83d
00000020: 7b21 363d 13e9 a6bc 356b c03d 6655 da3d
00000030: 48ca 183d ee9a 68bf 570a 47bf c102 7ebf
00000040: b140 b83b ce8b 583b 769d 37bd 00d1 253d
00000050: b8ba 9c3d 0e0f 1cbd 4011 42bf 0838 2abf
00000060: 7f31 e53c 1e6b 0ebf 9564 38bf 823a 5ebf
00000070: afc8 6ebd 8a3d 483d 8f90 3fbf 6e88 52bf
00000080: 6971 0dbc 0c8f 2b3c 1e55 85bc 4075 043e
00000090: d3e6 83bf e1ca 76bf bc1d 863c 62ed d53d
000000a0: 9a2a a03d 15d8 5f3d c164 0fbd 07ce 3a3d
000000b0: 5151 033d 8719 4a3d 5f0e 86bf 3fe9 47bf
000000c0: f423 9b3c eb0e db3c a5c8 8d3d fbc8 46bf
000000d0: 593e 61bf 0c1a 3d3b 16f6 4a3d afd7 88bf
000000e0: bac7 373d 506e 6dbf 58dc 063d 0323 bc3d
000000f0: 61c4 a73d f1e8 7ebf 2623 90bd 03eb 3fbd
00000100: 018a e53c 4fa8 36bd b172 aebc 48b9 29bf
00000110: 4b81 203d bd56 56bd 2db6 353d c918 8ebf
00000120: 6027 da3d db36 f13d 8fa9 37bf d966 70bc
00000130: 2d21 ec3b bc85 27bf fa87 4abf 045a 55bc
00000140: e4c4 ffba 2ca8 933d 4bfd 08bd 935e bebc
00000150: 33be 17bf a6a7 573d 8cdc 51bf 9756 4d3d
00000160: 4bb3 2abf 58b0 7e3b 5b73 dd3a 77b4 10bd
00000170: a84d 6fbf 97ee 423d 6d36 ae3d e588 38bf
00000180: 9b73 13bd 9a83 7b3d c781 87bb aa72 0fbf
00000190: a8eb 293d 515a d0bc 262e e9bb c259 76bf
000001a0: 44cb 5ebd 1b0b 7e3c 7b0c a5bc 13f7 9b3c
000001b0: 9d9a 07bf 4b8d 35bd f169 693b 9936 5abf
000001c0: fe17 53bc 4e04 433c f2b0 4bbc e09c a73c
000001d0: 0808 23bf a7c3 24bc 0356 ea3d 7ec1 0b3d
000001e0: e37a 87bf 0446 8fbf 4d2b 153e e63e 233e
000001f0: c178 643c b581 4bbf 7f0c 52bd c78d ba3d
00000200: 8081 8ebf 37d3 0abc cde2 16bd ac1b 92bb
00000210: be56 9bbf 1168 133d bbf6 523c 8fe2 03bf
00000220: 1b3d 06bf 740e 6fbc 5daf 923d a9ce f43c
00000230: 7c9d 99bc 6072 abbd e947 203d fda5 58bf
00000240: b9a7 af3d d0d2 df3c d992 ad3d c881 b7bb
00000250: 456a 743d bd15 d03b d5ce 8e3d a28e 443e
00000260: 9f56 aa3c f9c6 3b3d 5687 4e3d eeeb c9bc
00000270: aba1 d63c 7c23 19b9 22d8 2abd 649a 8bbf
00000280: 2942 213c ce08 83bc ab60 7bbf b4c3 6dbb
00000290: fcab 7dbc bc22 0a3d 784c 35bf 3a09 4f3d
000002a0: d8c1 2b3d 5df7 ae3d 7fac 7a3d 5a98 cb3c
000002b0: 7fc0 113d e2e6 14bf f1b7 0ebd 600f 893c
000002c0: e0a1 ba3c bff4 a9bd 675d 1cbb 75bc d33d
000002d0: c686 4fbf 64a2 38bf a23f 2abf 20a1 10bc
000002e0: 5cdc a8bd a4cd 4d3d 6de6 7f3d 11d5 493c
000002f0: 921a 2b3c 8cc5 e33c 2b68 c23d 0049 de3c
00000300: 596a a83d 8982 6dbf 03bb ba3d c494 f13d
00000310: be87 60bf 886b d93d af07 8e3b 5e02 823d
00000320: a267 753d 484e 543c aa4d dd3c 7cbd 88bf
00000330: b09b d3bc fa39 903c f16d 79bf c7e1 3dbf
00000340: c21a 923d 6d82 7bbf 9116 07bc 125d 67bf
00000350: 3d70 093e 9c7c 053d a975 d93d 23a1 15bd
00000360: 6423 29bf c105 61bf ccae 7c3c a99f 943c
00000370: 26bc 803d e364 b13d 9849 8bbf 7111 6dbf
00000380: a5ea ca3c 57d3 913d cd2a c43c cf9b febe
00000390: 34ea 83bf 8bf4 363d 0243 66bf 5488 163d
000003a0: b1b6 1d3d f3c0 f9bb 813e 1dbf f7ac 8b3d
000003b0: 2830 7abf a745 933c eaa9 94bc bd75 25bf
000003c0: d707 523d 22b5 8e3b 33bb ca3c fdfb 0dbc
000003d0: 0c79 c03c 1216 46ba ea6e ca3c c970 d7bc
000003e0: e7c1 9ebc 0771 e93b bb08 243d 954b 7d3d
000003f0: 7fec 5abf 3311 be3d 2c37 053d eed3 763d
0.08886946 -0.036907136 -0.88373107 -0.031835925 -0.73502153 -0.007892559 -0.70726687 0.097764425
0.044465523 -0.02037481 0.09395448 0.1066082 0.037302285 -0.90861404 -0.7775015 -0.9922295
0.005622946 0.0033042314 -0.0448279 0.04048252 0.07652801 -0.038100295 -0.7580757 -0.66491747
0.027977703 -0.556322 -0.72028476 -0.86808026 -0.058296856 0.048886813 -0.74829954 -0.82239425
-0.008632996 0.010471117 -0.016275939 0.12935352 -1.0304817 -0.9640332 0.0163716 0.10445668
0.078206256 0.05464943 -0.035008196 0.04560664 0.03205997 0.04934075 -1.0473136 -0.7809028
0.018938042 0.026740512 0.069230355 -0.7765042 -0.8798576 0.0028854636 0.049551092 -1.0690821
0.04486821 -0.9274645 0.03292498 0.091863655 0.08191753 -0.9957419 -0.07037954 -0.046854984
0.028019907 -0.044594105 -0.021294923 -0.6629834 0.039185803 -0.052328814 0.04436319 -1.1101314
0.106520414 0.11778041 -0.717431 -0.014672958 0.0072061033 -0.6543844 -0.79113734 -0.01302195
-0.0019513634 0.072098106 -0.033444684 -0.023238456 -0.59274596 0.052650116 -0.8197715 0.050131407
-0.6667983 0.0038862433 0.001689534 -0.035328355 -0.9347787 0.04759082 0.08506475 -0.72083884
-0.03599892 0.061404802 -0.0041353437 -0.5603434 0.041484505 -0.025433691 -0.007116097 -0.9623071
-0.054393068 0.015505577 -0.020147553 0.019038713 -0.52970296 -0.0443242 0.0035616125 -0.8523956
-0.012884138 0.011902882 -0.012432324 0.020460546 -0.6368413 -0.010056413 0.11442187 0.034120075
-1.0584377 -1.1193242 0.14567299 0.15941963 0.013944806 -0.7949479 -0.05128145 0.09109073
-1.113327 -0.008473209 -0.036837388 -0.004458865 -1.2135847 0.035987917 0.012876208 -0.51517576
-0.5243699 -0.014590848 0.07162354 0.0298837 -0.018751852 -0.08371425 0.03913108 -0.8462828
0.085769124 0.027322203 0.084752746 -0.005600188 0.05967166 0.0063502477 0.06973044 0.19195035
0.020793257 0.045844052 0.050422035 -0.024648633 0.026200136 -0.00014604436 -0.041710027 -1.0906491
0.009842434 -0.01599541 -0.9819438 -0.0036279978 -0.015482899 0.03372453 -0.7081981 0.05054591
0.04193291 0.085432746 0.06119966 0.02485292 0.03558397 -0.581648 -0.03484339 0.016730964
0.022782266 -0.08298635 -0.0023859383 0.1033868 -0.8106502 -0.7212279 -0.66503346 -0.008827478
-0.08245155 0.050244942 0.06247561 0.012318865 0.010443347 0.027804159 0.09492525 0.027134418
0.08223409 -0.92777306 0.09117701 0.11795953 -0.87707126 0.10616213 0.004334412 0.06348108
0.059913285 0.012958117 0.027014572 -1.0682826 -0.025831074 0.01760577 -0.9743338 -0.74172634
0.0713401 -0.9824589 -0.008245126 -0.9037639 0.13421722 0.03258954 0.10618145 -0.036530625
-0.66069627 -0.87899405 0.015422534 0.018142538 0.062858865 0.08661821 -1.0881834 -0.9260474
0.02477009 0.07120388 0.02394619 -0.49728248 -1.0305848 0.044666808 -0.89945996 0.036751106
0.038504306 -0.0076218783 -0.614235 0.068201 -0.9772973 0.017977549 -0.018147428 -0.6463278
0.051277008 0.004355089 0.024747467 -0.008666036 0.02349522 -0.00075563893 0.024711091 -0.026298897
-0.01937957 0.0071240696 0.04004739 0.06183966 -0.85517114 0.09280624 0.03252332 0.060260706

l3.weight f4 [9, 128]
00000000: a9e8 023e 445c c93d a34f c8bd 96f8 81be
00000010: 48d7 51bd 4806 f93d b801 f2be da53 293e
00000020: 9c47 193e 2074 98bd 8b06 47bd 156b af3d
00000030: b4cf 093e 52a0 fc3d cb15 103e 62dc 6fbb
00000040: f57f 0d3e 2bdc 0f3e 1417 0e3e 1c22 fb3d
00000050: 7266 aaba 6e2b 66bf be87 19bc 4889 2fbd
00000060: 3436 36bd de12 7ebd db49 323a 8884 e73d
00000070: fa3e 113e dbdb 223e 5f04 27bb b847 0cbe
00000080: b6ce 113e 76b9 bf3d f996 053e c4f2 fbbd
00000090: 6b12 123e eefc cbbe 3e14 f13d fb3a 023e
000000a0: 02f6 043e 8a84 28bd b790 1fbe faaa 253e
000000b0: efe5 edbc e7d7 aebd 4777 1abc ee71 053e
000000c0: 0018 4d3b 9381 c6bd 9a5f 013e 7e9d 083e
000000d0: b8d1 b4bd 0427 d4bc a876 e53d b1b3 093e
000000e0: 382a cdbd 1278 35bd 8f84 afbd 67c3 ef3d
000000f0: ccd6 ce3d 1d1b 223e 5c18 073e 366e 0a3e
00000100: 11c9 c83d b7cb 163e 0fa1 003e a8df 083e
00000110: fa25 013e 6635 0ebf aa03 d03d 2c56 f8bd
00000120: 8d7c f63d af5e b2bc 8e33 92bd 3ea1 8bbd
00000130: 2abe 113e d063 ee3d ef00 b5be 2a42 053e
00000140: 760a c83d 6fe6 eb3d 8680 9d3c 1a72 64bd
00000150: 011d 86bd a7bf 8fbd 7e89 063e 850f 993b
00000160: 959d cbbd 185e f93d 9356 1e3e 90e9 ecbd
00000170: adbe 47bd 4d32 cdbe 2d59 74bd e530 63bd
00000180: 2969 5ebd 6e07 023e 6486 e9bc 0526 4abe
00000190: 3024 d13d 5d3e adbc 3e00 f8bc e293 1b3e
000001a0: 1d05 10bd fc61 16be fd7a cfbd 4fbf 1cbd
000001b0: 20bb e6bd 7403 8cbd 7949 f93d d702 bbbd
000001c0: e059 093e a411 12bd a223 0b3e 56c8 143e
000001d0: c375 043e c97d 043e 20ca 143e 2a3a 97bd
000001e0: 06d2 9fbd 448f 26bf b423 e5bd 91d8 f83d
000001f0: 4cfa 033e 8fd9 0b3e 2c8b e63d da5f 0d3e
00000200: 4570 e0bd 524e eb3d 23e1 96bd eb21 cc3d
00000210: 3ac3 a1bd 6a8f d93d 36f6 f83d 7b1a 1e3e
00000220: 78f1 a7bd 5789 943d b86f 46bd b483 35be
00000230: 531b 07bf b5cb 063e 71a0 afbd 04a9 95bc
00000240: 525d 073e 9c3a ef3d 26bd a5bd c338 e43d
00000250: a0ac 1abc e22f 0f3e 95ec 193e f52b 133e
00000260: afcd 0f3e 3aa5 e33d 5a14 ff3d a3b9 fcbd
00000270: 22b8 e3bd 51a4 dbbd dc8f 1cbd 6fcf df3d
00000280: 56dd 47be eae3 d83d e9ba 81bd 83bc cb3d
00000290: 6fd1 2abd 25d6 f73d 4e79 e43d 7c58 99bd
000002a0: f908 0e3e 86a6 bdbd 7f5b fd3d 0bd2 1a3e
000002b0: a53f 033e 2bfb adbd 250b 173e 19da e93d
000002c0: 0390 abbb 4619 ff3d 4b6a 76be 7c30 f03d
000002d0: 6343 0e3e 934a 0a3e d75d da3d dced c1be
000002e0: eee5 cc3d 755e eb3d 74e7 b73d ecbd fb3d
000002f0: 1e34 de3d 9ba7 1a3e 67cf 0c3e be7f f23d
00000300: 034a e93d 4963 fdbd 0e7b fa3d cb46 e9bc
00000310: 7c9a 0b3e 5a09 ee3d dcc3 b93d 43ea da3d
00000320: b2be febd 9b49 0cbd 3cb8 133e 35e9 b63d
00000330: 0555 a7be b9fb da3d f18e 0b3e b040 f63d
00000340: 254f 02be 7ee9 d33d 5c16 3ebc 0276 b2bd
00000350: 506f 9dbd d8fc 103e e1b0 c9be 086f 04bd
00000360: 1ca9 ba3d 5197 e23d 99dd 033e 9930 07be
00000370: 9804 11bd f896 05bf 1b0f f93d 7496 e2bd
00000380: 4c82 0a3e 3f8d 89be 36fc 97bd 43de 063e
00000390: 3f03 b53d 8a80 3abd 33ed f6bc a0bf 133e
000003a0: 8f1f d43d a437 a83d 6a56 c4bd 6eca 8ebd
000003b0: 7c56 ddbd 61dd 07be bd27 0d3e 2c01 a93d
000003c0: 1dc1 013e a71f 153e 1d3e a5bd b06c 2bbe
000003d0: d74e a7be b595 d5bd 7637 69bd 6640 073e
000003e0: 4dfb e13d 713c fbbe 8ae7 003e 3093 00be
000003f0: 78fd 1f3e 0512 fd3d 6cd9 dd3d c5d9 80bd
0.12784065 0.098320514 -0.097808145 -0.2538497 -0.0512307 0.12159401 -0.47266936 0.16535893
0.14968723 -0.07444024 -0.048590224 0.08565346 0.13458139 0.12335266 0.14070813 -0.0036599864
0.13818343 0.14048831 0.13875991 0.12262365 -0.0013000502 -0.8991002 -0.009370742 -0.04285553
-0.044485286 -0.062029712 0.00068011665 0.11304575 0.1418418 0.1590418 -0.0025484783 -0.13699234
0.1423901 0.09361546 0.13045873 -0.12302163 0.14264838 -0.39841408 0.11771439 0.12717812
0.1298447 -0.041142024 -0.15582548 0.16178504 -0.029040305 -0.08537274 -0.009427852 0.13031742
0.0031294823 -0.09692683 0.12634125 0.13341329 -0.08829063 -0.02589751 0.112042725 0.13447453
-0.10017818 -0.04430396 -0.085702054 0.11707192 0.10099563 0.15830655 0.13192886 0.13518605
0.098039754 0.14726149 0.12561439 0.13366568 0.12612143 -0.5555023 0.10156949 -0.12125811
0.12035475 -0.021773664 -0.071387395 -0.06817864 0.14232698 0.116401315 -0.35352275 0.13013521
0.0976762 0.11518561 0.019226324 -0.05577288 -0.06548501 -0.07018977 0.13138387 0.0046710395
-0.09942166 0.1217615 0.15462713 -0.11567986 -0.048765827 -0.4007744 -0.059655357 -0.05546655
-0.054299507 0.12698147 -0.028506465 -0.19741066 0.1021198 -0.021147901 -0.030273553 0.15193132
-0.035161126 -0.14685816 -0.1013088 -0.038268384 -0.1126616 -0.06836596 0.12172217 -0.09131401
0.13413191 -0.035661355 0.13587812 0.14529547 0.12935548 0.12938608 0.1453023 -0.07384141
-0.07803731 -0.65062356 -0.111884505 0.12150682 0.1288845 0.13657211 0.11257014 0.13806096
-0.10958914 0.11489548 -0.0736716 0.09967407 -0.07898565 0.10623057 0.12156336 0.15439789
-0.082003534 0.07252758 -0.048446387 -0.17726022 -0.5277607 0.13163646 -0.08575524 -0.01826907
0.13219193 0.11681101 -0.08092718 0.11143639 -0.009440571 0.1398311 0.15031655 0.14372237
0.14043306 0.11115499 0.12455054 -0.12340095 -0.11119105 -0.107247 -0.038223132 0.10928237
-0.19518027 0.10590346 -0.063344784 0.09948065 -0.041703638 0.12101392 0.111559495 -0.0748758
0.1387061 -0.092602775 0.12370967 0.15119188 0.12817247 -0.08495172 0.14750345 0.11418552
-0.0052356734 0.124559924 -0.24063985 0.11727998 0.13892893 0.1350501 0.1066243 -0.37876785
0.10004793 0.114926256 0.08979693 0.12292084 0.10849784 0.15102999 0.13750993 0.11840771
0.1139107 -0.12372453 0.12230502 -0.02847614 0.1363315 0.116228774 0.0907056 0.10689213
-0.12438716 -0.034249883 0.14425749 0.089311995 -0.32682052 0.106925435 0.13628747 0.12024057
-0.12725504 0.103472695 -0.011602011 -0.087139145 -0.07687247 0.14158952 -0.3939276 -0.03233245
0.09114286 0.110640176 0.12877502 -0.13202132 -0.03540477 -0.52183485 0.12161084 -0.11063853
0.13526267 -0.26865575 -0.07421152 0.13170724 0.0883851 -0.04553274 -0.030142402 0.14428568
0.10357582 0.082137376 -0.09586795 -0.06972204 -0.10807511 -0.13268043 0.1378469 0.08252177
0.12671323 0.14562856 -0.08068488 -0.1674068 -0.32677338 -0.10428945 -0.056937657 0.1320816
0.1103426 -0.4906955 0.12588325 -0.12556148 0.15624034 0.123569526 0.108324856 -0.06291536
